mini_transformer.pt (torch, 827914 bytes, 27 tensors)

weight f4 [1000, 64]
00000000: cd1a 89be b758 38bf 0e59 0740 dbf4 78bf
00000010: 8346 c73f 3b5f 95bf 78c5 d83e 8228 c13d
00000020: eae3 9fbf a980 2ec0 6e29 8f3f 2af0 8d3e
00000030: 9ebe 50bd 7fd9 14bf 7b40 1b40 8343 cd3e
00000040: 525a e63d b5a7 e73f 598c 28bf 03e5 5abe
00000050: b838 c03f 1f41 46bf f4c6 dcbd 53f6 1c3f
00000060: 6e21 e1be 97c2 a4bc 6408 76be a574 973d
00000070: 43fb d3bd 30da 4c3f 8316 ae3f bae3 8dbf
00000080: bd1c 90bf 3ab4 553e 39f6 07be ca39 6cbf
00000090: 5f0a abbe 3f72 693f fef1 873f f74c f5be
000000a0: 60ac 8dbe 0b4f 7ebe f8b4 16bf 360e 11bf
000000b0: f114 ce3f 5b0e 62be 606a 713f fdaa 2d3e
000000c0: 5ca8 89bf 96d6 873e 8ced e1be b892 153f
000000d0: b3a2 b93e 2f08 d53f 6c09 24c0 c348 753f
000000e0: 18ac 99bd 4cc8 b43e 32f8 d03c c6ef a73f
000000f0: ee22 043e ff43 a8be 4324 b83f 4d73 9ebf
00000100: a02f 22bf b714 b93f d68b ddbf 9a23 2b3e
00000110: 4c80 683f 823b acbe 9efa 3d3e c95e a13f
00000120: b4c4 dd3f c7e2 993d 0789 9fbf 5964 4a3f
00000130: a315 3dbf f719 1cbf 0eec 41bf 10ec f6be
00000140: a0cd 8d3e cd69 363f 64f2 973f 59b2 eebf
00000150: 8ccf fb3e 8ba3 b43f 0e05 5ebf d2de dabc
00000160: 5945 c53f 60e0 d93f 90c0 06c0 3283 bebd
00000170: d324 67be 0009 dc3f f60f a33f 2251 2c3e
00000180: 6ddc 30bf a7a1 debe e118 53bf 7cea 32bf
00000190: f750 5b3f d787 a03f 0881 e93e 9391 243f
000001a0: d4f3 4fbf 3ce1 0d3e dcf1 edbe 3a5d 7e3e
000001b0: d122 9dbf 3eb6 2d3f 437d 89bf 3a38 003e
000001c0: bcee 9d3f a3b0 09bf b91b 663e 71dc 9fbd
000001d0: b413 8ebf 6da0 86bf 6be3 f93e 35a0 0a3f
000001e0: bc81 743f 9cf7 15bf b2cd ab3f c65f 5abf
000001f0: ce04 19be d6db da3e 0007 a93e d6a1 4a3e
00000200: b08d 0abf 6f69 dc3d dd78 abbe 9740 0d3f
00000210: b26c a33f 4d50 d3bf 1d37 a13d c739 093d
00000220: 9f1c 493f 0313 f23d 5690 6d3e 5591 c5be
00000230: 428e 6abf 6ba5 fb3e bd70 833f e597 8ebf
00000240: 2feb f33e 14ea 4c3e 679d bc3e 4726 da3e
00000250: 4206 ca3f 0b6c 3f3f dc29 23bf 5e44 d63f
00000260: 0f52 9ebd 7b3a e9bd 1820 ee3f 7769 553f
00000270: 2328 f73e 6ee4 d53d a245 a0bf 3ba8 b4be
00000280: 3b99 c9bf e7f9 f7be f52c 0a3f f18d fd3d
00000290: 433f aabf da86 a73f 6636 76bf f161 46be
000002a0: dc1c 963e 12c0 283e 1d50 6e3f 0940 463e
000002b0: 8044 953f 1365 2bbf e364 03be dd34 703f
000002c0: 30f2 063f cbce e13f a644 5ebf 7819 d3be
000002d0: 2bc9 943e 1812 d7bf c22f 593f 00c1 71bf
000002e0: b738 4d3f f4e3 6fbd 4bd5 023d 5090 8c3f
000002f0: 12d6 90be b781 84be f2ea c7bf b824 2ebf
00000300: a2f5 c13e 08d0 92be 301b b03f 710b 943f
00000310: 81b9 ba3e a81b 133d 9421 80be 24a9 af3f
00000320: 90e0 bcbf a979 ba3e a652 1d3f 0924 3d3e
00000330: 15f5 12bf 6194 f7bf 21b5 a13e dcd1 c8bf
00000340: bdec 37bf 9ba8 a43e ac83 323e 2b28 80be
00000350: 0b7f 06c0 d113 8f3f 73e8 87be 34af ca3d
00000360: d4fb 0dbf a3f1 c53e 63e0 d33e 4ada f7bf
00000370: 4233 1e3f 7ec4 c73f e491 723f 6f0e 8e3f
00000380: 6482 4dbf da8e 403e 04b7 a83f 605f ea3f
00000390: aed4 943f 32cb 12bf 5a63 9cbe 9d42 a6bf
000003a0: 9e4e b13f 3c8e c6be 0178 dd3f 90f5 17c0
000003b0: afc6 cbbe dd4e 60bf 953e 813e 5d9d 0dbe
000003c0: 45c6 1bbf 3ccf 363f 8e10 a2bf b934 1b3e
000003d0: c2ed 223f b07a 043f 0541 92bf 7d97 d3bf
000003e0: f189 4bbf 3628 62bf 3b82 c93e 8613 26be
000003f0: a9e0 fdbe bc5b eabf ac0c 9dbf aada 15be
-0.2677826 -0.7201037 2.1148105 -0.9724862 1.5568393 -1.1669687 0.42338157 0.094315544
-1.2491429 -2.7266028 1.1184518 0.27722293 -0.050963037 -0.5814437 2.4258106 0.4009057
0.11247696 1.8098055 -0.65839154 -0.21376424 1.5017309 -0.77443117 -0.10780135 0.6131336
-0.43970817 -0.020112319 -0.24026638 0.07395295 -0.10350659 0.8002043 1.360062 -1.1085122
-1.125877 0.20869532 -0.1327752 -0.9227568 -0.3340635 0.9118995 1.0620725 -0.47910282
-0.27670574 -0.2483484 -0.58869886 -0.5666231 1.6100141 -0.22075789 0.9430294 0.16959758
-1.0754504 0.26530904 -0.44126546 0.58427 0.36256942 1.6643122 -2.563075 0.9581415
-0.075035274 0.35309064 0.025508974 1.3120048 0.1290395 -0.32864377 1.4386066 -1.2378937
-0.6335392 1.4459447 -1.73083 0.167128 0.90820765 -0.3363915 0.18552634 1.2607051
1.7325654 0.075139575 -1.2463692 0.7905937 -0.7386114 -0.6097712 -0.75750816 -0.48226976
0.27695942 0.7125519 1.1870847 -1.8648177 0.49181783 1.4112409 -0.8672646 -0.026717577
1.5411788 1.7021599 -2.105503 -0.09302367 -0.22572641 1.7190247 1.2739246 0.16827825
-0.69086343 -0.43482706 -0.8245984 -0.69889045 0.8567042 1.2541455 0.45606256 0.6428463
-0.8123143 0.13855451 -0.46473587 0.2484025 -1.227625 0.67856205 -1.0741352 0.12521449
1.2338481 -0.5378515 0.22471513 -0.07805718 -1.1099763 -1.0517708 0.4880632 0.54150707
0.9551046 -0.58580947 1.3422148 -0.8530239 -0.14943239 0.42745847 0.33013153 0.19788298
-0.5412245 0.10762297 -0.3349065 0.5517668 1.2767546 -1.6508881 0.0787184 0.033502366
0.785593 0.118200324 0.23199591 -0.38587442 -0.9162332 0.4914964 1.026878 -1.1140105
0.47640368 0.20011169 0.36838838 0.42607328 1.578316 0.74774235 -0.6373575 1.6739614
-0.07730495 -0.113881074 1.8603544 0.8336405 0.4827281 0.1044396 -1.252125 -0.352846
-1.5749887 -0.48432848 0.5397485 0.12380589 -1.3300556 1.3088028 -0.96176755 -0.19373299
0.29318893 0.16479519 0.93090993 0.19360365 1.166153 -0.669511 -0.12831454 0.9383066
0.527133 1.7641233 -0.868235 -0.4123037 0.2905973 -1.6802397 0.848385 -0.9443512
0.80164665 -0.058567002 0.031941693 1.0981541 -0.28288323 -0.25880215 -1.5618575 -0.6802478
0.37882715 -0.2867434 1.3758297 1.1565992 0.36469653 0.035915047 -0.25025618 1.3723493
-1.4756031 0.36420944 0.61454237 0.18470778 -0.57405216 -1.9342157 0.31583503 -1.5689044
-0.7184561 0.32159886 0.17433041 -0.25030646 -2.101504 1.1177922 -0.26544532 0.098966986
-0.55462384 0.38660917 0.4138213 -1.9363492 0.61796963 1.560684 0.9475386 1.1098155
-0.80277085 0.18804494 1.3180852 1.8310356 1.1627405 -0.573413 -0.3054455 -1.2989079
1.3852117 -0.3878039 1.7302247 -2.374363 -0.3980002 -0.87620336 0.2524306 -0.1382956
-0.6084941 0.71409965 -1.2661302 0.15156831 0.6364404 0.51749706 -1.1426092 -1.6530606
-0.79507357 -0.8834261 0.3935717 -0.16218385 -0.49585465 -1.8309245 -1.2269492 -0.14634195

in_proj_weight f4 [192, 64]
00000000: 94e5 53bd 0df3 d53d 0a98 903d b545 4bbd
00000010: 5bbe 373d 7b87 04bd c186 49bd a97c ff3d
00000020: 4e66 f63d 5bf4 c3bd 276c cb3d c619 ff3d
00000030: 7dac 2ebd c3b8 ed3d af07 2c3b e09b 19be
00000040: b8e0 0dbe 1d17 ebbd 8c81 acbd 1f17 0fbe
00000050: 847d 743d 47ba dbbc b180 0f3e 8890 5ebd
00000060: ad0b f83d 0917 3abd 06bb cabd 6a4e ac3d
00000070: 375c 82bd 7797 efbd 7a89 14be 16a9 81bd
00000080: 6c82 6dbd 8a18 123e 9904 223b fee3 11be
00000090: 3fff ccbb 8cf6 d8bd 9a99 da3d 078c d0bd
000000a0: 5c28 15be b785 20bc 9157 0fbe 5553 123e
000000b0: 42c0 abbd 9f57 7fbd 8802 393d df3a a33d
000000c0: 4719 89bd 8eeb 15be 4343 9f3d 5df2 59bd
000000d0: 8d3b 3cbd a70f f43d 4faf bebc d3d2 ff3c
000000e0: 031b 0fbe 937e 03be 3b82 eb3d 7a9c ee3d
000000f0: 51db c83d 04c8 6e3d 6ea9 e83d b62c ee3d
00000100: 6153 903d e7ef e83d c8b4 babd 74f6 cb3d
00000110: fce5 c5bd 5563 1bbc 834f 90bd 770a 70bd
00000120: 7960 1c3c ad5c f03c 9456 14be 0e86 dd3d
00000130: 2abb c3bd 60e1 c6bd 1bd8 ecbd 58e1 dd3d
00000140: 69f2 873d ad95 243b ed9c d4bc f867 a93d
00000150: 2ee0 683d 9b26 d03d dfb4 99bd 6d77 0f3e
00000160: 7a91 1a3e 98aa 173e b7c8 0bbe 2591 b6bc
00000170: d8e5 97bc 8e02 053e 1521 883c 0578 64bd
00000180: 5d7f 1cbe 9fc0 153e 8f94 083e 7501 cdbd
00000190: 20ed af3d 5a13 8a3d b2d8 e33d c14b 99bd
000001a0: 1416 b23d 31a1 d03d d613 abbd 5640 19be
000001b0: f879 083e 31a5 0d3e 9c41 58bd d2bc 14be
000001c0: 50a2 ba3d e442 58bd b6d2 53bd b6bd 093e
000001d0: a0cc 403d d143 9f3d 0549 f93d 00fc 5cbd
000001e0: 6c4a ae3d cbcc fbbd ce71 40bd b7d7 58bd
000001f0: ce09 d0bd 497e c8bd 0e23 a3bd 9902 4b3c
00000200: 79b1 c2bd 3f2f babc 7616 6abc 552a 92bc
00000210: fabc 1abe 45af 083b 24db 183e eecf f1bd
00000220: 4f12 68bc 63e7 22bd 344f ec3d 907d a5bd
00000230: e9ee db3d 9613 a83b 067b 04be c8b3 f8bd
00000240: f146 f9bd 6529 103e 24eb 713d a193 dcbb
00000250: 37e4 cabd f7dc 643d 13c5 333d 771b 9cbc
00000260: 5d58 113e 0ad2 d0bd bba1 713c d4f2 b03d
00000270: 2604 133e 34bf 933d 7e20 a53c ddab 013e
00000280: 20e6 183e 267d 0d3e 230f c13d 50f0 10be
00000290: e89d debc 5c06 b6bd 7ad6 1dbd 6d20 93bc
000002a0: 8b35 8e3b a09f 143e 08cf 5c3d 29dc 113e
000002b0: bc0a 0b3e b3b0 c9bd 6f87 14be 9d78 b73d
000002c0: 7fbc 763d 65b1 bfbd 5e23 113e 7d6f c03c
000002d0: f5c3 3e3d 23be a33d 401d c5bc 560e 63bd
000002e0: 1caa 183d 6be1 0abe 5ec5 993d 19d2 193e
000002f0: a849 f23d def8 153e e1a0 0ebe 3255 8bbd
00000300: abc5 e53c 11ba 103b 65ae 98bc f255 9e3d
00000310: 965b 193e 902b f3bc 0141 253d a344 1bbc
00000320: bc69 04be 83a1 043e 427b 293d f315 acbd
00000330: 90fb 0f3e fa51 6c3d 3b87 773d 3050 0a3e
00000340: 1c96 0dbe dfa8 ae3c d387 c33c 1658 91bd
00000350: a8fd 46bd 7ed8 c6bc 8a1f 48bd 523a 013e
00000360: ddcc b73d cf2b 9dbd 3451 bdbd 94f8 34bd
00000370: 8966 14bd c75b c03b a82c f8bd 61c7 043d
00000380: ff86 0d3e 4362 0fbe 6e53 85bd f650 01be
00000390: 5e9d 03be 01d5 9dbd dd7b c83d 1430 ebbc
000003a0: 33d8 9fbd d6ff 0c3c 1540 e43c 65d2 0fbd
000003b0: e128 4e3d d4b2 a23d 58d9 02be 79e8 163e
000003c0: c251 a3bd 502f d4bd 0b57 973d 7413 5c3d
000003d0: 01ce 72bd 5d96 3dbd 22bb 9d3d 8b44 9d3d
000003e0: 49ea 533d 751f 12be 02cb d23d cfd5 073e
000003f0: 480a 03be a306 88bc fa7e 15be 03e5 e73d
-0.051732615 0.10446749 0.07060249 -0.049627025 0.04485927 -0.032355767 -0.049200777 0.12474949
0.12031232 -0.095680915 0.09932738 0.12456088 -0.042644966 0.11607506 0.0026249697 -0.15000868
-0.13855255 -0.11479018 -0.084231466 -0.13973664 0.059690014 -0.026822222 0.14013936 -0.054337054
0.12111602 -0.045432124 -0.09898953 0.08413394 -0.06365245 -0.116988115 -0.14505568 -0.06331079
-0.057985708 0.14267173 0.0024721979 -0.14247128 -0.0062560136 -0.105939 0.106738284 -0.10182958
-0.14566177 -0.009797505 -0.13998248 0.14289601 -0.0838628 -0.06233942 0.04516843 0.07970213
-0.066942744 -0.14640638 0.07776501 -0.05320965 -0.04595523 0.11917048 -0.023276953 0.031228459
-0.13975148 -0.12841253 0.11499449 0.11650939 0.09807456 0.05829622 0.11360441 0.11629622
0.07047153 0.11373883 -0.091165125 0.099591166 -0.09663007 -0.009484132 -0.07046416 -0.05860373
0.009544485 0.029341066 -0.14486152 0.108165845 -0.09557183 -0.097109556 -0.11564656 0.108339965
0.06638033 0.0025113628 -0.025953734 0.082717836 0.05685442 0.101636134 -0.075052015 0.14010401
0.15094557 0.1481117 -0.13650785 -0.022286007 -0.018542215 0.12989256 0.016617337 -0.055778522
-0.1528296 0.1462426 0.1333792 -0.100100435 0.0859015 0.06741972 0.11125316 -0.07485152
0.08695617 0.10186995 -0.08353393 -0.14965948 0.13327777 0.13832547 -0.052796945 -0.14525154
0.0911299 -0.052798167 -0.05171462 0.13451275 0.047070146 0.07776607 0.121721305 -0.053951263
0.085102886 -0.122949205 -0.046983533 -0.052940097 -0.1015812 -0.09789712 -0.079656705 0.012390756
-0.095065065 -0.022727607 -0.014287582 -0.017842451 -0.15111151 0.0020856422 0.14927346 -0.118072376
-0.014164521 -0.03977145 0.11538544 -0.0808059 0.10738928 0.005129288 -0.12937555 -0.121436656
-0.12171734 0.14078291 0.05906214 -0.006731466 -0.0990681 0.05587479 0.043889116 -0.019056065
0.14193864 -0.10196312 0.014748032 0.08640066 0.14357051 0.072142035 0.020157095 0.12663217
0.14931536 0.13817272 0.09426715 -0.14154172 -0.027174905 -0.08887932 -0.03853462 -0.017959798
0.004339879 0.14514017 0.053908378 0.1424414 0.13578314 -0.09848156 -0.14504789 0.08958552
0.060238358 -0.09360007 0.14173648 0.023490662 0.046573598 0.0799525 -0.024061799 -0.055433594
0.037271604 -0.13562553 0.07508348 0.15021552 0.11830455 0.14645717 -0.13928558 -0.06803359
0.028048357 0.002208356 -0.018637845 0.077312365 0.14976344 -0.029683858 0.040345196 -0.0094768135
-0.1293096 0.12952237 0.041377313 -0.08402624 0.14060807 0.057695366 0.0604317 0.13507152
-0.13826793 0.021320758 0.023868477 -0.07096879 -0.04858175 -0.024273153 -0.048858203 0.12619904
0.089746214 -0.076743715 -0.09244004 -0.044182375 -0.036230598 0.0058703157 -0.121178925 0.032416705
0.13821028 -0.14002328 -0.065100536 -0.1262854 -0.12853 -0.07706643 0.0978925 -0.028709449
-0.078049086 0.008605918 0.027862588 -0.035112757 0.050331954 0.07944265 -0.12778223 0.14737119
-0.079745784 -0.10360587 0.07389649 0.05372949 -0.059278492 -0.046285976 0.077017084 0.07679089
0.051737104 -0.14269812 0.10292627 0.13265155 -0.1279689 -0.016604727 -0.14599219 0.113229774

in_proj_bias f4 [192]
00000000: 0000 0000 0000 0000 0000 0000 0000 0000
00000010: 0000 0000 0000 0000 0000 0000 0000 0000
00000020: 0000 0000 0000 0000 0000 0000 0000 0000
00000030: 0000 0000 0000 0000 0000 0000 0000 0000
00000040: 0000 0000 0000 0000 0000 0000 0000 0000
00000050: 0000 0000 0000 0000 0000 0000 0000 0000
00000060: 0000 0000 0000 0000 0000 0000 0000 0000
00000070: 0000 0000 0000 0000 0000 0000 0000 0000
00000080: 0000 0000 0000 0000 0000 0000 0000 0000
00000090: 0000 0000 0000 0000 0000 0000 0000 0000
000000a0: 0000 0000 0000 0000 0000 0000 0000 0000
000000b0: 0000 0000 0000 0000 0000 0000 0000 0000
000000c0: 0000 0000 0000 0000 0000 0000 0000 0000
000000d0: 0000 0000 0000 0000 0000 0000 0000 0000
000000e0: 0000 0000 0000 0000 0000 0000 0000 0000
000000f0: 0000 0000 0000 0000 0000 0000 0000 0000
00000100: 0000 0000 0000 0000 0000 0000 0000 0000
00000110: 0000 0000 0000 0000 0000 0000 0000 0000
00000120: 0000 0000 0000 0000 0000 0000 0000 0000
00000130: 0000 0000 0000 0000 0000 0000 0000 0000
00000140: 0000 0000 0000 0000 0000 0000 0000 0000
00000150: 0000 0000 0000 0000 0000 0000 0000 0000
00000160: 0000 0000 0000 0000 0000 0000 0000 0000
00000170: 0000 0000 0000 0000 0000 0000 0000 0000
00000180: 0000 0000 0000 0000 0000 0000 0000 0000
00000190: 0000 0000 0000 0000 0000 0000 0000 0000
000001a0: 0000 0000 0000 0000 0000 0000 0000 0000
000001b0: 0000 0000 0000 0000 0000 0000 0000 0000
000001c0: 0000 0000 0000 0000 0000 0000 0000 0000
000001d0: 0000 0000 0000 0000 0000 0000 0000 0000
000001e0: 0000 0000 0000 0000 0000 0000 0000 0000
000001f0: 0000 0000 0000 0000 0000 0000 0000 0000
00000200: 0000 0000 0000 0000 0000 0000 0000 0000
00000210: 0000 0000 0000 0000 0000 0000 0000 0000
00000220: 0000 0000 0000 0000 0000 0000 0000 0000
00000230: 0000 0000 0000 0000 0000 0000 0000 0000
00000240: 0000 0000 0000 0000 0000 0000 0000 0000
00000250: 0000 0000 0000 0000 0000 0000 0000 0000
00000260: 0000 0000 0000 0000 0000 0000 0000 0000
00000270: 0000 0000 0000 0000 0000 0000 0000 0000
00000280: 0000 0000 0000 0000 0000 0000 0000 0000
00000290: 0000 0000 0000 0000 0000 0000 0000 0000
000002a0: 0000 0000 0000 0000 0000 0000 0000 0000
000002b0: 0000 0000 0000 0000 0000 0000 0000 0000
000002c0: 0000 0000 0000 0000 0000 0000 0000 0000
000002d0: 0000 0000 0000 0000 0000 0000 0000 0000
000002e0: 0000 0000 0000 0000 0000 0000 0000 0000
000002f0: 0000 0000 0000 0000 0000 0000 0000 0000
0.0 0.0 0.0 0.0 0.0 0.0 0.0 0.0
0.0 0.0 0.0 0.0 0.0 0.0 0.0 0.0
0.0 0.0 0.0 0.0 0.0 0.0 0.0 0.0
0.0 0.0 0.0 0.0 0.0 0.0 0.0 0.0
0.0 0.0 0.0 0.0 0.0 0.0 0.0 0.0
0.0 0.0 0.0 0.0 0.0 0.0 0.0 0.0
0.0 0.0 0.0 0.0 0.0 0.0 0.0 0.0
0.0 0.0 0.0 0.0 0.0 0.0 0.0 0.0
0.0 0.0 0.0 0.0 0.0 0.0 0.0 0.0
0.0 0.0 0.0 0.0 0.0 0.0 0.0 0.0
0.0 0.0 0.0 0.0 0.0 0.0 0.0 0.0
0.0 0.0 0.0 0.0 0.0 0.0 0.0 0.0
0.0 0.0 0.0 0.0 0.0 0.0 0.0 0.0
0.0 0.0 0.0 0.0 0.0 0.0 0.0 0.0
0.0 0.0 0.0 0.0 0.0 0.0 0.0 0.0
0.0 0.0 0.0 0.0 0.0 0.0 0.0 0.0
0.0 0.0 0.0 0.0 0.0 0.0 0.0 0.0
0.0 0.0 0.0 0.0 0.0 0.0 0.0 0.0
0.0 0.0 0.0 0.0 0.0 0.0 0.0 0.0
0.0 0.0 0.0 0.0 0.0 0.0 0.0 0.0
0.0 0.0 0.0 0.0 0.0 0.0 0.0 0.0
0.0 0.0 0.0 0.0 0.0 0.0 0.0 0.0
0.0 0.0 0.0 0.0 0.0 0.0 0.0 0.0
0.0 0.0 0.0 0.0 0.0 0.0 0.0 0.0

weight f4 [64, 64]
00000000: 1454 c13d 7abe 9fbd 6e1f e13d 46e2 96bd
00000010: a815 903c 98eb ea3d 2c94 1ebd 4cb8 5fbd
00000020: dac1 f8bd e8ad 903d 2cbb 9b3d e8a1 653d
00000030: 88c2 2cbd 7088 323d c26a d73d 500f 71bd
00000040: 6214 babd 0ecf d9bd 9071 adbd d2a4 f03d
00000050: 3079 dc3c 528a 913d e83d 963c 0e6e fcbd
00000060: 060b d6bd 042a 1b3d 506b 85bd cc24 f1bd
00000070: 8062 ec3d e826 0e3d 10f4 c4bc b8b7 b0bc
00000080: c827 3bbd 009b ab3c d0cc 173c f473 6d3d
00000090: 2464 db3d 9c89 7e3d 26d5 a5bd 12ac b43d
000000a0: 3498 493d b0bc 003d f00d 14bc 0a70 e0bd
000000b0: 00c0 5bb8 da49 e03d f0f6 1fbc 0889 e4bc
000000c0: 70a6 c1bd 7e30 c53d 00b5 2bbd 288a 88bc
000000d0: 1083 7abd b2e3 e33d c0c5 f03c 6caa f4bd
000000e0: de1b ee3d b804 37bd fc1a d93d 4026 f8bc
000000f0: 4855 48bd a8dc 1e3d 68e1 e13c 4015 673b
00000100: 2eb6 d03d 287d 33bd fcad 40bd 5a9a 953d
00000110: 36bc 9a3d d896 f0bd 1c1b 82bd e8f0 85bd
00000120: 6e5f a1bd 8a36 e43d 10e5 7bbd a412 c13d
00000130: d88a 1d3d e4a4 723d 08eb b5bc ec80 253d
00000140: bae7 dc3d 9024 98bd d0bd eabd 80cb 313c
00000150: 4cb9 063d e4cb 68bd 4088 76bb bcba 033d
00000160: a079 90bd 9059 843d 206b 87bd 887d 81bd
00000170: a851 063d c8ca 2b3d 4cac 223d 3a65 f2bd
00000180: a893 d13d 807a f53c 102f 2cbc ae84 d3bd
00000190: e0c0 f23b 80d8 d63d 4056 81bd acc0 a63d
000001a0: b40f 4b3d 20f9 aa3d a021 cabc ec0b 843d
000001b0: 80f4 46bc 7893 803c 20df 81bb e827 3b3d
000001c0: 50b2 5d3d b891 4dbd d4f4 b9bd 2414 5bbd
000001d0: da5c a53d 8cb6 f1bd 8261 c7bd 603a 5d3c
000001e0: f0ac b63c d0b5 a2bc b44f 2c3d d4b9 e13d
000001f0: b689 d8bd 2078 313c 6c85 c8bd fce4 0cbd
00000200: 8642 80bd 36fb 8abd 3a90 e73d d0f5 d7bd
00000210: ca44 da3d c017 d9bc 1092 d8bd b2ca c23d
00000220: cea5 e7bd dc33 6abd 164c ab3d ace7 1abd
00000230: 6c5a 4a3d 02ea e03d 68cc 6d3d 5619 e73d
00000240: d01b 19bd 4cd3 eebd 2e17 b33d 7824 de3d
00000250: 98d6 0abd 6c7c 98bd c09d b93c 66bc ff3d
00000260: 1e68 cebd 1c0e 6bbd e039 ef3b c4f0 c5bd
00000270: b841 dfbd bed6 a53d b055 5fbc 98c0 763d
00000280: 2874 0f3d c4fd c13d 0430 103d 1a6e c8bd
00000290: b005 38bc f8d0 973d d051 2e3c b2e9 863d
000002a0: 0ac8 d23d 6c4b 7fbd 6ee5 a73d 00f5 fe3d
000002b0: 8051 4abd 4059 d4bc 1e18 b43d c08b 19bb
000002c0: 6272 c53d 440b 893d 1093 3ebc a02f 333c
000002d0: 50ba 83bc 28e9 943c b4ef 623d 0474 8cbd
000002e0: e0f4 753c c03e dc3c a0c6 6bbc 8025 ecbb
000002f0: e0fc 783d a867 8abd 20ce 75bd f2e5 fcbd
00000300: 4804 c43c 3212 f33d 6479 7cbd b4aa d0bd
00000310: a6eb 99bd e870 703d ac54 0a3d 7692 a93d
00000320: e0b6 f23b f04d e6bc b0c9 a7bc aca7 f5bd
00000330: 6a51 c2bd 5ac1 96bd 6c52 c23d a0b8 093c
00000340: a4e0 703d b05a c1bd 5e11 fb3d cc11 a93d
00000350: f099 a83c e606 d7bd 4a05 a33d 7cc1 a93d
00000360: 509f 433c 8032 f6bd fe0d 85bd 3854 b03c
00000370: 10f4 2ebc d242 ea3d 981e cabc 80c9 d4ba
00000380: 40e8 a6bd 10ec b3bd 1042 4d3c 9460 543d
00000390: 284c e7bc c29f a03d 00f8 c5bd 4822 c53c
000003a0: d000 5b3d 22e6 afbd 0856 ba3c 3809 f0bc
000003b0: 4a69 a3bd 0ca1 e63d 2288 983d c809 c8bc
000003c0: 3ecc ff3d 20e1 55bd 403b e53b 6887 99bc
000003d0: c846 953c 1020 dc3d ace1 6bbd 283a 06bd
000003e0: a0ed 183d a00f 9bbd ac61 5d3d a891 aabd
000003f0: d0b9 80bd 6af3 ec3d 5888 7a3d 1aa1 cb3d
0.09439865 -0.078000024 0.10992323 -0.07367377 0.017588452 0.11470717 -0.038715526 -0.05461912
-0.12146349 0.0706442 0.076040596 0.05606261 -0.042177707 0.04358715 0.10518409 -0.058852494
-0.09085919 -0.10635196 -0.08468926 0.11750187 0.026913255 0.07106461 0.018340066 -0.12325679
-0.10451321 0.037881866 -0.06514609 -0.117745966 0.11542225 0.034705073 -0.02404216 -0.021571979
-0.045692235 0.020947933 0.00926514 0.05797191 0.1071246 0.062142953 -0.080972955 0.08821882
0.049217418 0.031429946 -0.009036526 -0.1095887 -5.2392483e-05 0.10951586 -0.009763464 -0.027897373
-0.094555736 0.0962839 -0.041920662 -0.01666744 -0.061160147 0.11127414 0.02939117 -0.11946568
0.11626409 -0.044682235 0.1060085 -0.030291677 -0.048909456 0.038784653 0.027573302 0.0035260469
0.10190998 -0.04382053 -0.047040924 0.07304831 0.0755543 -0.11747521 -0.06352827 -0.0654009
-0.0787953 0.11143215 -0.061497748 0.094273835 0.03846249 0.059239283 -0.022206798 0.040406153
0.10786386 -0.07428849 -0.11461985 0.010851741 0.032891557 -0.05683507 -0.0037617832 0.032160506
-0.07054448 0.06462395 -0.06612229 -0.06322771 0.032792717 0.041941434 0.039715096 -0.11835714
0.10233241 0.02996564 -0.010509267 -0.10328041 0.0074082464 0.10490513 -0.06315279 0.08142218
0.049575523 0.08348298 -0.024674237 0.064475864 -0.012143254 0.015695319 -0.003963366 0.045692354
0.05412513 -0.050187796 -0.090799004 -0.053486004 0.08074351 -0.11802396 -0.09735395 0.013502687
0.02229926 -0.019862086 0.0420682 0.11021772 -0.10573141 0.010831863 -0.09791073 -0.034398064
-0.06262688 -0.06786196 0.11306806 -0.10544932 0.10657652 -0.026500583 -0.10574734 0.09511317
-0.113109216 -0.057178363 0.083641216 -0.037818596 0.04940264 0.109821334 0.058056265 0.11284129
-0.03738004 -0.116613954 0.087446555 0.108467996 -0.03389606 -0.074456066 0.022658229 0.12487106
-0.100784525 -0.057386503 0.0073006004 -0.09665063 -0.10901207 0.080975994 -0.013631269 0.060242265
0.035022885 0.0947223 0.03520204 -0.09786625 -0.011231825 0.074129045 0.010639623 0.065875426
0.10292061 -0.062327787 0.08198057 0.12449074 -0.04939413 -0.025921464 0.087936625 -0.0023429245
0.096409574 0.06691602 -0.011631742 0.010936648 -0.016080052 0.018177584 0.05540438 -0.06858066
0.015011996 0.02688539 -0.014390618 -0.007206619 0.060788035 -0.06758052 -0.06001103 -0.12348546
0.023927823 0.11868705 -0.061639205 -0.10188809 -0.075156495 0.058701426 0.033772156 0.08279888
0.0074070543 -0.028113335 -0.020481914 -0.119948715 -0.09488185 -0.07361098 0.09488377 0.008405834
0.058807984 -0.094411254 0.12259172 0.082553476 0.020581216 -0.10499363 0.07959993 0.08288857
0.0119398385 -0.12021351 -0.064968094 0.021524534 -0.010678306 0.11438526 -0.024672791 -0.0016234368
-0.08149767 -0.0878526 0.012527958 0.051849917 -0.028234556 0.078429714 -0.09666443 0.024064198
0.05346757 -0.08588816 0.022746101 -0.02930127 -0.07979067 0.11261186 0.0744784 -0.024418727
0.12490128 -0.05221665 0.0069955885 -0.018741325 0.018222228 0.10748303 -0.057588264 -0.032770306
0.03733599 -0.075713396 0.054048225 -0.08328563 -0.06285441 0.11569865 0.061165184 0.09942837

bias f4 [64]
00000000: 0000 0000 0000 0000 0000 0000 0000 0000
00000010: 0000 0000 0000 0000 0000 0000 0000 0000
00000020: 0000 0000 0000 0000 0000 0000 0000 0000
00000030: 0000 0000 0000 0000 0000 0000 0000 0000
00000040: 0000 0000 0000 0000 0000 0000 0000 0000
00000050: 0000 0000 0000 0000 0000 0000 0000 0000
00000060: 0000 0000 0000 0000 0000 0000 0000 0000
00000070: 0000 0000 0000 0000 0000 0000 0000 0000
00000080: 0000 0000 0000 0000 0000 0000 0000 0000
00000090: 0000 0000 0000 0000 0000 0000 0000 0000
000000a0: 0000 0000 0000 0000 0000 0000 0000 0000
000000b0: 0000 0000 0000 0000 0000 0000 0000 0000
000000c0: 0000 0000 0000 0000 0000 0000 0000 0000
000000d0: 0000 0000 0000 0000 0000 0000 0000 0000
000000e0: 0000 0000 0000 0000 0000 0000 0000 0000
000000f0: 0000 0000 0000 0000 0000 0000 0000 0000
0.0 0.0 0.0 0.0 0.0 0.0 0.0 0.0
0.0 0.0 0.0 0.0 0.0 0.0 0.0 0.0
0.0 0.0 0.0 0.0 0.0 0.0 0.0 0.0
0.0 0.0 0.0 0.0 0.0 0.0 0.0 0.0
0.0 0.0 0.0 0.0 0.0 0.0 0.0 0.0
0.0 0.0 0.0 0.0 0.0 0.0 0.0 0.0
0.0 0.0 0.0 0.0 0.0 0.0 0.0 0.0
0.0 0.0 0.0 0.0 0.0 0.0 0.0 0.0

weight f4 [128, 64]
00000000: a2a6 b2bd 28ca d23d 7e68 f13d bcfa 18bd
00000010: d6c3 afbd 90c9 f3bd cc3b 6fbd 083b ebbd
00000020: 7e5b 8f3d dea4 e9bd e0da 60bc b413 653d
00000030: e86e 2bbd 68d3 8f3d 1245 a5bd d8db f73d
00000040: f41b c83d 385f a33c 5076 6abd 949b e83d
00000050: 409d 1cbb 8c0b 90bd a0ce b0bd 3629 c9bd
00000060: b034 293c ec7d 183d b00a 3ebd 80ae 2b3c
00000070: 0845 d4bd 1afb 85bd 08cb 2f3d 602a 70bd
00000080: 5811 e6bd c4ff c1bd 2c34 37bd 3c61 303d
00000090: 3c25 96bd f805 bebc 6055 45bc 8e4a ebbd
000000a0: 480b b9bc 3ebc d0bd 706a 813c f8aa 3c3d
000000b0: 1ed6 b43d 02a4 fd3d 00cc 31bb 4806 b43d
000000c0: 5850 89bd be9c f2bd aa46 cebd 82ab 913d
000000d0: 1247 bbbd 68b4 e33d 40dc c23d dac7 923d
000000e0: b058 3fbd 5891 c5bd 6429 c9bd bc72 593d
000000f0: 34bf 8bbd d883 46bd 50cc cd3c 36b0 e63d
00000100: 00b1 db3c 483b dd3d 906d 113c ea0c a0bd
00000110: 38e4 99bc d00d f9bc b0f8 b0bd e417 49bd
00000120: 205f 17bc 8879 f23d 9efd f93d 3086 df3d
00000130: 302c a03d a402 0bbd 949c d03d 1488 e13d
00000140: 1663 e5bd a054 34bd 8e78 94bd 98e5 083d
00000150: 74cb 393d 9ef0 cdbd e099 f0bc 2ce8 f2bd
00000160: 0465 033d 1c68 5a3d 9409 3f3d 2cb3 e03d
00000170: 184d 283d 8461 14bd 64ec 65bd f44d bbbd
00000180: fe87 ba3d 00b0 8639 5898 7fbd 7edb cc3d
00000190: 803f f03a 006c 6e39 060a debd 98e1 533d
000001a0: 4c86 1ebd 4863 3d3d ec9f f53d d279 973d
000001b0: dabf cf3d c0ec 30bc 94bd 7a3d 32b8 c9bd
000001c0: 6e5f e83d 5c14 5f3d e28c e7bd 3813 a13c
000001d0: 7263 fc3d bc8f f13d 422e a3bd d0e9 5c3c
000001e0: fc43 a3bd 8838 eebd 282c af3c c89c f93c
000001f0: 44c1 253d e4fd 65bd aede f33d e48a 90bd
00000200: e82d 69bd 2855 853c 020f d3bd 3045 67bc
00000210: a4d7 e2bd c447 31bd 7064 213d d09f 4bbd
00000220: c245 c73d 0002 cf3c c086 5c3d b241 c6bd
00000230: a8a2 f33c d060 45bc 783f 603d 20dd e3bb
00000240: 4c91 82bd 6619 d2bd 38af eb3c c25f 99bd
00000250: 4c21 febd 2806 81bc 780f b5bc 9a0a fbbd
00000260: 3c1c adbd 5432 9d3d 4cbe e1bd 06c3 c6bd
00000270: 38b6 b83d c0f7 663b a03c ce3d 206e 2a3c
00000280: 44ff b3bd 281c 4d3d 4015 0ebc 1060 de3c
00000290: f809 45bd 1ada 883d 50b2 1dbd bccc c6bd
000002a0: b894 e23d 286e c53d 2889 a3bd 68a1 803d
000002b0: 305f b2bd dab7 e8bd d8b7 223d b0b6 e2bc
000002c0: 301a 3f3c 20e0 22bc 9ca2 1ebd 9ca9 4f3d
000002d0: 180c 6d3d 7cad 5b3d 780c 943d 20e3 a83b
000002e0: 4c61 1b3d 6cce c93d 90f4 f3bd 5878 80bc
000002f0: c43c d5bd 4436 46bd 74a1 9c3d c06b e5bd
00000300: f06a 473c 10d1 763d 902f b4bd f8e6 e3bd
00000310: 747a 5e3d d24d febd bae6 ecbd 8021 083c
00000320: d45e f2bd 5024 79bc ce41 a83d 10f4 9fbc
00000330: b848 813d 0810 ea3c 9aad ff3d 2ab5 f33d
00000340: 60b3 4e3d 40a6 4c3c 4a7c e9bd e676 dfbd
00000350: 9482 ebbd fc40 38bd 100f 5abc e029 51bc
00000360: 80b2 9aba 8858 2d3d 183a 943d 9238 bfbd
00000370: 5447 373d d0fd ec3d 64ba 27bd 5038 09bd
00000380: 4cdd 6a3d 6060 ea3c 4879 c3bc 08ae 2a3d
00000390: 20cb a7bb 8055 72bc 50a6 28bc 72eb 8a3d
000003a0: 9c43 9ebd 88d5 18bd f080 6abd 80d7 2b3d
000003b0: fcbe 6cbd ac20 fcbd 807c cc3d 80ce 2ebb
000003c0: e001 d5bd a0ee debc 086c 1a3d da61 96bd
000003d0: 309e b43d 30bc 873d 1059 9bbc aac1 d93d
000003e0: 5ca5 a7bd 6496 65bd 600f 083d 0079 8c3b
000003f0: b4aa f7bd 806e ef3b f023 bb3c 001e f7bb
-0.08723189 0.102924645 0.117875084 -0.037348494 -0.085822746 -0.11903679 -0.058406636 -0.11485869
0.069998726 -0.11408399 -0.013724059 0.055926993 -0.041853815 0.070227444 -0.08069815 0.12102479
0.09770957 0.019942865 -0.057241738 0.11357799 -0.002389744 -0.070334524 -0.086331606 -0.098223135
0.010327503 0.037229463 -0.04639691 0.010478616 -0.10364729 -0.065420344 0.042918235 -0.058634162
-0.11233777 -0.094726115 -0.04472749 0.04306148 -0.07331321 -0.023196205 -0.012044281 -0.114888296
-0.022588387 -0.10192154 0.015797824 0.046061486 0.08829902 0.12384798 -0.002712965 0.087902606
-0.067047775 -0.118463024 -0.10072072 0.07112791 -0.09144415 0.11118394 0.095146656 0.07167025
-0.04671544 -0.09646863 -0.09822348 0.053087935 -0.068235785 -0.04846558 0.025121838 0.11264078
0.026817799 0.108023226 0.008876219 -0.07814963 -0.018785581 -0.030402094 -0.086411834 -0.04909505
-0.009238988 0.118395865 0.12206577 0.10914266 0.07820928 -0.033938065 0.10186115 0.11012283
-0.1120054 -0.044026017 -0.072495565 0.033422083 0.045360044 -0.1005566 -0.029370248 -0.118606895
0.032078758 0.053321943 0.046639994 0.10971674 0.041089147 -0.03622581 -0.056133643 -0.09145728
0.0910797 0.00025689602 -0.062401146 0.10002802 0.0018329471 0.00022737682 -0.108417556 0.051728815
-0.038702294 0.04623726 0.11993393 0.07396282 0.10144015 -0.010798633 0.061215952 -0.098495856
0.11346327 0.054462776 -0.11306168 0.019662485 0.12323655 0.11794993 -0.07967807 0.01348348
-0.07971951 -0.11631876 0.02138336 0.030470267 0.040467516 -0.056150332 0.11907707 -0.07057741
-0.056928545 0.016275957 -0.10305597 -0.014115617 -0.110762864 -0.04328133 0.039402425 -0.049712956
0.09730102 0.025269508 0.053839445 -0.09680499 0.029740646 -0.012047008 0.05474803 -0.0069538504
-0.063753694 -0.102587506 0.028770074 -0.074889675 -0.124086946 -0.015750006 -0.022102103 -0.122578815
-0.08452651 0.07675615 -0.110226244 -0.097051665 0.090191305 0.0035242885 0.10070157 0.010402232
-0.087889224 0.05007568 -0.008672059 0.027145416 -0.04810521 0.066822246 -0.03850013 -0.09707019
0.11063522 0.09640151 -0.07985145 0.06280786 -0.08709562 -0.11363192 0.03972611 -0.027675003
0.011663958 -0.009941131 -0.038729295 0.05069886 0.05787286 0.053632244 0.07228941 0.0051540285
0.037934586 0.09853825 -0.11911881 -0.015682384 -0.10411981 -0.048391595 0.07647982 -0.11202192
0.012171492 0.06025797 -0.08798134 -0.11128038 0.054316 -0.12417187 -0.11567445 0.008308768
-0.11834493 -0.0152064115 0.08215676 -0.019525558 0.06312698 0.028572097 0.12484284 0.11899789
0.050464034 0.012490809 -0.114006594 -0.1091135 -0.11499515 -0.04498385 -0.013309255 -0.012766331
-0.0011802465 0.042320758 0.07237643 -0.09336962 0.04474576 0.115718484 -0.04094924 -0.03350097
0.05733995 0.028610408 -0.023861542 0.041669875 -0.00512065 -0.014790893 -0.010293558 0.06783189
-0.07727739 -0.037313014 -0.05725187 0.041953564 -0.057799324 -0.12310919 0.09984684 -0.0026673377
-0.10400748 -0.027213395 0.037700683 -0.073428825 0.08819234 0.06627691 -0.018963367 0.106326416
-0.08185837 -0.056051627 0.033217788 0.0042868853 -0.12093106 0.007306874 0.022844285 -0.007541418

bias f4 [128]
00000000: 8038 79bc 0091 253b e0f7 13bc 183f 7fbd
00000010: 8691 99bd b021 183c 26b1 993d 700f 3dbc
00000020: e408 b83d c867 12bd 9067 e3bd d045 693d
00000030: c0f5 fe3d 7004 3ebd 9691 dfbd f2b2 cb3d
00000040: d4ac 033d 8285 dd3d 6c88 d4bd 086f 623d
00000050: cc9f 6ebd 74db acbd 82de a43d 4e4e e83d
00000060: 5053 f73d 904d 13bc 801e f83c c05d f33d
00000070: 5e37 90bd a0e8 5a3d c678 fbbd 0435 00bd
00000080: 1096 e43d c0f8 433b d0a2 2bbd 2c73 d63d
00000090: 30b4 b83d d4d0 93bd 3005 24bc 628d f8bd
000000a0: b86d e2bd 0869 fabd 6c6f 6d3d 3078 393d
000000b0: 7801 cebc 3067 90bd d4e5 fb3d 60aa 32bd
000000c0: 8a54 dc3d a6a9 943d 10bb a0bd 10bd d7bd
000000d0: 5c9e 1f3d 1cbd 8fbd 285e cdbc 3ea1 93bd
000000e0: f688 9c3d 0098 4039 22d6 a33d 40fc 0abc
000000f0: 3ad5 c93d 985a 283d 4cb9 fb3d 761a a8bd
00000100: 2883 cebc 6ec0 943d 3023 8fbd a0ba df3b
00000110: e40f ab3d d0bf 9f3d d8f9 50bd 00a5 7bba
00000120: 9058 723d 2629 b7bd d85e bc3c 806b 78bb
00000130: fcc7 34bd 8cf3 b73d 867e ea3d b81e 123d
00000140: dabf 8b3d a224 e8bd 7e05 e13d 5e7e ecbd
00000150: 68e1 f2bc 94f3 b83d 72b3 b33d 70ce 283c
00000160: 7a32 c63d acb3 783d 10b1 32bc 1863 f53d
00000170: 60ce c1bc d850 0e3d 204d ccbd a4d6 153d
00000180: 68fb 873d c869 d33d 04fc 5b3d ee67 e0bd
00000190: c2d5 ff3d 82ad 963d ca77 c83d 02bc 813d
000001a0: 9cd9 243d 4e6d ed3d 26f2 c43d a40f ccbd
000001b0: 20ca 44bc 38c8 2b3d 9079 a73d 30b3 313d
000001c0: e0a3 06bd 888f efbd 502e 43bc e0a4 fe3d
000001d0: fcc6 933d 809f 393c 88b0 adbc 76cf efbd
000001e0: fc69 a4bd 1452 b33d 9496 dbbd 84ba 693d
000001f0: 46ee a9bd c000 d53b 18e9 803c c063 3d3d
-0.015211225 0.0025263429 -0.009031266 -0.06231603 -0.074984595 0.0092853755 0.075044915 -0.011539325
0.08986071 -0.035743505 -0.11103737 0.056951344 0.12449217 -0.04639095 -0.1091644 0.099462405
0.032147244 0.1081648 -0.10377583 0.05528167 -0.058257863 -0.08440295 0.080502525 0.113430604
0.120764375 -0.00899066 0.030287981 0.11883116 -0.070418105 0.053444505 -0.12278895 -0.03130056
0.11161435 0.0029902905 -0.041903317 0.10471186 0.09018743 -0.07217565 -0.010011002 -0.12136342
-0.110560834 -0.12227064 0.05796759 0.045280635 -0.025147185 -0.070509315 0.122996956 -0.043619514
0.10758312 0.0725892 -0.07848179 -0.10534108 0.038969383 -0.070184916 -0.025069311 -0.07208489
0.07643311 0.00018367171 0.07999827 -0.008482993 0.09855123 0.041102022 0.12291202 -0.08208172
-0.025209025 0.072632656 -0.06989133 0.0068276674 0.0835264 0.07800257 -0.05101952 -0.0009599477
0.05916649 -0.08943395 0.022994444 -0.0037905872 -0.044136032 0.08982 0.11449914 0.035673827
0.06823702 -0.11335112 0.10987376 -0.1154754 -0.029648498 0.09030834 0.08774461 0.010303125
0.096775964 0.060718223 -0.010906473 0.11981791 -0.023657978 0.034745067 -0.09975648 0.03658165
0.06639749 0.103229105 0.053707138 -0.10957323 0.12491943 0.07357313 0.09788473 0.06334688
0.04024659 0.11593114 0.09616499 -0.09963921 -0.012011081 0.04193899 0.08177483 0.043383777
-0.032871127 -0.11697298 -0.011912897 0.12433791 0.07215688 0.011329532 -0.02120234 -0.11709492
-0.080280274 0.087558895 -0.1072208 0.05706264 -0.082974 0.0065003335 0.015736148 0.046237707

weight f4 [64, 128]
00000000: 2b52 80bd 40c1 a23c 2638 20bd 4fd1 45bc
00000010: 0554 a33c affd 01bb bdfe b0bc f165 953d
00000020: 1977 f5bc 4e09 d2bc 8f80 b4bd 7a92 93bd
00000030: 65c5 3fbd b3ca acbc 11c2 5d3b 7ece b2bd
00000040: 5c18 1a3d 9544 3fbc dcc5 dabc fa09 80bd
00000050: 0a65 503d fa77 803c df6e ee3a 3da4 acbd
00000060: 9d76 813d 1d50 5fbd 714b 13bc 93c0 9dbd
00000070: 0f09 ec3c d6e3 75bd 4036 56bc 8067 ab3d
00000080: d1a2 9b3d bd36 b3bd 06c9 51bc 232b b33d
00000090: beec 343d 6b85 a13c af77 49bd 800b 72bc
000000a0: 449d dfbc f476 c939 9a8c aa3d 399f 7a3d
000000b0: 09ea 933d b19c 28bd e219 903d ec75 703d
000000c0: d203 7d3d bdff 943d 815a 0abd 9c2b e1bb
000000d0: 47f8 dc3c f78c 9a3c 4e3f 143d a10d 8abd
000000e0: 40ea 91bd 376f b13c f272 6cbc d51e 7bbd
000000f0: dc18 a2bd 78a1 923c 0499 9e3d 9846 9a3d
00000100: 1681 e4bb 3cb8 a13d fc12 a8bd b401 2cbd
00000110: 6979 9e3c b3a7 2cbd 661e 69ba 59a7 833d
00000120: 3464 823d 5cc4 713d c753 75bd c557 78bd
00000130: 9eb8 cbbc 54a7 723b b967 9a3d 21fe aa3c
00000140: c4eb a13d f1c6 ce3c ff1c 893d 5652 3b3d
00000150: f031 8b3d 524c 97bd 9da9 ab3d 8c0b ae3c
00000160: e2d8 633b a776 febc 26f1 54bd 863d 453c
00000170: b7a1 7bbd 23d3 6abd 2758 83bd cda7 73bd
00000180: f452 933a 9ed2 89bc b876 9d3c 0dde 3e3c
00000190: 4c2b 993d 99e4 343b 30bd b0bd da69 8b3d
000001a0: 07b2 3f3d 27f5 53bd cffe 553d 40dd 653d
000001b0: bf9c 9fbd 92af 85bd 20e6 9f3d 41e0 c33c
000001c0: 216a 64bd 5de5 18bc bfa7 bcba 837a a53d
000001d0: 395a 96bd 9421 af3d 829e 903d 642f 9abd
000001e0: 6d67 283d 13a9 183d ee52 5bbb 2370 a13d
000001f0: 1e4e 23bd 34d5 743d bb34 c0ba 7fe4 983d
00000200: 4ea5 883d 090e 413d a6ac 343c a125 5b3c
00000210: e044 b5bc 8baa 18bc 5438 9f3d ad38 44bd
00000220: d113 773d b480 abbb 529d 6ebc cd7c c239
00000230: 7b7e 253d 8879 a9bd 055c 93bd 54df 8e3d
00000240: dd31 15bd 0785 6f3c b037 b03d 6e2a 653d
00000250: 3e06 913d 55c7 8abd 783b b43d 783b b4bd
00000260: 9ac0 7abd 62e8 afbd 39cc 393d ab51 443d
00000270: fe74 a03d 5a4f 823d 9c76 69bb 03e9 29bc
00000280: 5116 853d 8db6 0ebd f97e 063d d155 87bd
00000290: 4790 77bd b368 b03b 6898 d6bc fa62 1b3d
000002a0: a2cc b23d c2dd af3d 7b03 52bd 0aac d43c
000002b0: cb11 253d a62f 403d 7b04 0ebd d451 b33d
000002c0: 6260 38bd cf9a 073d 97df 803d cb51 80bd
000002d0: f062 ddbc 5af1 033d 79e3 9b3d 731f 6f3d
000002e0: c076 13bd c7bc e33c 61d1 b13d 6516 2fbd
000002f0: 494d 023d 8c57 2fbd b173 983d f314 973c
00000300: 2e4d 0c3d af90 94bd 83b4 37bd 7d4a 4e3c
00000310: 845d 83bd 5c78 a8bd 7896 853d 1325 793c
00000320: e49b e0bc 7a6c 023d f0e2 f4bc 2d0c 483d
00000330: 11fe 863d 53ba afbd 4cc0 c4bc a775 38bc
00000340: 84c4 92bd 7b99 babc b615 5dbd 8005 883d
00000350: afc0 27bd 0df8 d9bc 14a6 87bd 2253 5cbd
00000360: 5721 3c3d 2ceb a13c 08da c6ba 6779 a5bd
00000370: 699e 183d 5363 6ebd 5821 4abd ada4 94bd
00000380: d375 fc3b c7f5 88bd 4775 27bd 91e7 6e3d
00000390: 1362 d13c a29d aebc aa8a 433d 85b8 ddbc
000003a0: 72f6 c2bc 1628 843d d054 7c3d d0fe 24bd
000003b0: 9d63 073d 1395 7bbd cec2 3a3c 7945 8f3d
000003c0: 9ebc d3bc 0576 44bd b282 e53c 4796 e8bc
000003d0: 5808 693c f99b a2bc 7bd0 893d 7b34 933c
000003e0: 84bb 0bbd 8f9f e03c 1b7c 70bd a7a9 373a
000003f0: 6783 81bd d222 5cbd ed29 823d 25d9 533d
-0.06265672 0.01986754 -0.039116047 -0.012073829 0.019937525 -0.0019835045 -0.021605844 0.072948344
-0.029964017 -0.025639202 -0.08813583 -0.072056726 -0.04681911 -0.021092748 0.0033837596 -0.087307915
0.037620887 -0.011674066 -0.026705675 -0.06251903 0.05087761 0.01568221 0.0018191001 -0.084297635
0.06321452 -0.05451976 -0.008990155 -0.07702746 0.028812913 -0.060031734 -0.013074458 0.083693504
0.07599414 -0.08750675 -0.012804275 0.08748462 0.044171087 0.019716939 -0.049186405 -0.01477325
-0.02729667 0.00038426335 0.08327599 0.061187003 0.07222373 -0.041165058 0.07036187 0.05870621
0.06177122 0.07275341 -0.033777718 -0.0068716537 0.026973857 0.018866045 0.036193185 -0.06740881
-0.07124758 0.021659477 -0.014431702 -0.0613087 -0.07914898 0.01789926 0.07744029 0.07532996
-0.006973396 0.07896468 -0.08206746 -0.04199381 0.019345002 -0.042152118 -0.00088927743 0.064284034
0.063667685 0.059025154 -0.05989435 -0.06063058 -0.024868306 0.0037026005 0.07539315 0.020873131
0.07906297 0.025241347 0.06694984 0.04573282 0.06796634 -0.07387604 0.083819605 0.02124574
0.0034766723 -0.031062437 -0.05198779 0.012038594 -0.06143352 -0.057330262 -0.06413298 -0.0594862
0.0011239932 -0.016824063 0.019221649 0.011649621 0.07478961 0.0027602075 -0.08629835 0.06807299
0.04680064 -0.051747467 0.052244958 0.056119204 -0.07793569 -0.06527628 0.07807565 0.023910644
-0.055765275 -0.009332028 -0.0014393254 0.08080008 -0.07341427 0.085513264 0.07061483 -0.0752857
0.04111426 0.037270617 -0.0033466178 0.078827165 -0.03986942 0.05977364 -0.0014664152 0.07465457
0.06672154 0.047132526 0.011027491 0.013375671 -0.022127569 -0.009318004 0.077744156 -0.047905613
0.060321633 -0.0052338485 -0.014563875 0.00037095547 0.040403824 -0.08275133 -0.07195286 0.0697619
-0.036424506 0.0146191185 0.086043715 0.055948667 0.07081269 -0.06776301 0.08800405 -0.08800405
-0.061218835 -0.085892454 0.045360778 0.047929447 0.078348145 0.06362791 -0.0035623675 -0.010370496
0.06498397 -0.034842063 0.032835934 -0.06608165 -0.060440328 0.005383575 -0.02619572 0.03793619
0.08730437 0.08587219 -0.05127285 0.02596094 0.04030017 0.04692044 -0.03467224 0.08755842
-0.045013793 0.03310662 0.062926464 -0.06265601 -0.027024716 0.032212593 0.07611746 0.0583796
-0.03600192 0.027799977 0.08682514 -0.042745966 0.031811986 -0.0428081 0.074439414 0.018442607
0.03425329 -0.07254159 -0.044849884 0.012591002 -0.06414321 -0.08226082 0.0652284 0.015206593
-0.027418084 0.031841733 -0.029893368 0.048839737 0.06591428 -0.085804604 -0.024017476 -0.011258519
-0.07166389 -0.022778263 -0.053975783 0.06641674 -0.04095524 -0.026607538 -0.06623474 -0.05379022
0.045930233 0.019765459 -0.001517118 -0.08079796 0.037260447 -0.05820019 -0.049348205 -0.07257972
0.0077044754 -0.06687503 -0.04088333 0.058326308 0.02555946 -0.0213154 0.047739662 -0.027065525
-0.023799155 0.06452958 0.06160432 -0.04028207 0.033053983 -0.061421465 0.011398984 0.06995673
-0.025846776 -0.047964115 0.028016422 -0.02839197 0.014223181 -0.019849764 0.067292176 0.01796936
-0.034114376 0.027419833 -0.058712106 0.0007006176 -0.06323891 -0.053744145 0.06355653 0.051720757

bias f4 [64]
00000000: 467a d93c 9d6b 67bd 2107 b03d 7333 9abd
00000010: 4d7c 9b3c 4372 f93c f917 14bd a623 1fbd
00000020: f154 8b3d 6ef7 9d3d 5075 573d 7832 5d3d
00000030: 757c 183d f49d 8a3d e02a 92bc 0a30 bd3c
00000040: 199f 033c 5fc0 9d3d 6a15 083d e0bc 89bc
00000050: a73c 213d 6a30 223d 91ce acbc 8a66 adbd
00000060: 30cd 9cbd cabd 07bc 3ad0 b2bd b891 48bc
00000070: b8ab 2ebd 3cc8 7e3b 6a04 8abd 28b6 b2bd
00000080: 66e2 86bd 9ba9 9b3d 6061 b0bd 9f4f 0c3d
00000090: 4ab4 76bd c342 abbd 850c 63bd 236a 62bd
000000a0: b22f 843d 6382 f13c 986a 943c 29e6 85bd
000000b0: a383 8d3d b489 4f3d 01d2 4d3d 788d c53c
000000c0: fc4f 4bbd 88bb 693d ecd5 dbbb e38e 4d3c
000000d0: 50a0 70bd 1d2f 973d ea2c 26bc bbe0 8abd
000000e0: fcc1 643d d255 97bd 4490 90bd 85bf a23d
000000f0: 5dc1 41bd 186e 40bc 2a06 7f3d 5651 913d
0.026547562 -0.056499112 0.0859511 -0.075293444 0.01898017 0.030449992 -0.036155675 -0.038852356
0.06803311 0.07713209 0.052602112 0.05400321 0.037228066 0.067684084 -0.01784271 0.023094196
0.008033537 0.077027075 0.033223547 -0.016813695 0.039364483 0.039596952 -0.021094592 -0.084668234
-0.07656324 -0.008284995 -0.08731122 -0.012241773 -0.042644233 0.0038876673 -0.06739123 -0.0872615
-0.06586151 0.07600709 -0.08612323 0.03425562 -0.06023053 -0.08362343 -0.05543186 -0.055277
0.0645441 0.029481119 0.018117234 -0.0653804 0.06909873 0.050668433 0.050249103 0.02411531
-0.049636826 0.05706361 -0.006708851 0.012546274 -0.058746636 0.07382033 -0.010142544 -0.06781145
0.05584906 -0.07389416 -0.070587665 0.07946686 -0.047303546 -0.011744998 0.062261738 0.07095592

weight f4 [64]
00000000: 0000 803f 0000 803f 0000 803f 0000 803f
00000010: 0000 803f 0000 803f 0000 803f 0000 803f
00000020: 0000 803f 0000 803f 0000 803f 0000 803f
00000030: 0000 803f 0000 803f 0000 803f 0000 803f
00000040: 0000 803f 0000 803f 0000 803f 0000 803f
00000050: 0000 803f 0000 803f 0000 803f 0000 803f
00000060: 0000 803f 0000 803f 0000 803f 0000 803f
00000070: 0000 803f 0000 803f 0000 803f 0000 803f
00000080: 0000 803f 0000 803f 0000 803f 0000 803f
00000090: 0000 803f 0000 803f 0000 803f 0000 803f
000000a0: 0000 803f 0000 803f 0000 803f 0000 803f
000000b0: 0000 803f 0000 803f 0000 803f 0000 803f
000000c0: 0000 803f 0000 803f 0000 803f 0000 803f
000000d0: 0000 803f 0000 803f 0000 803f 0000 803f
000000e0: 0000 803f 0000 803f 0000 803f 0000 803f
000000f0: 0000 803f 0000 803f 0000 803f 0000 803f
1.0 1.0 1.0 1.0 1.0 1.0 1.0 1.0
1.0 1.0 1.0 1.0 1.0 1.0 1.0 1.0
1.0 1.0 1.0 1.0 1.0 1.0 1.0 1.0
1.0 1.0 1.0 1.0 1.0 1.0 1.0 1.0
1.0 1.0 1.0 1.0 1.0 1.0 1.0 1.0
1.0 1.0 1.0 1.0 1.0 1.0 1.0 1.0
1.0 1.0 1.0 1.0 1.0 1.0 1.0 1.0
1.0 1.0 1.0 1.0 1.0 1.0 1.0 1.0

bias f4 [64]
00000000: 0000 0000 0000 0000 0000 0000 0000 0000
00000010: 0000 0000 0000 0000 0000 0000 0000 0000
00000020: 0000 0000 0000 0000 0000 0000 0000 0000
00000030: 0000 0000 0000 0000 0000 0000 0000 0000
00000040: 0000 0000 0000 0000 0000 0000 0000 0000
00000050: 0000 0000 0000 0000 0000 0000 0000 0000
00000060: 0000 0000 0000 0000 0000 0000 0000 0000
00000070: 0000 0000 0000 0000 0000 0000 0000 0000
00000080: 0000 0000 0000 0000 0000 0000 0000 0000
00000090: 0000 0000 0000 0000 0000 0000 0000 0000
000000a0: 0000 0000 0000 0000 0000 0000 0000 0000
000000b0: 0000 0000 0000 0000 0000 0000 0000 0000
000000c0: 0000 0000 0000 0000 0000 0000 0000 0000
000000d0: 0000 0000 0000 0000 0000 0000 0000 0000
000000e0: 0000 0000 0000 0000 0000 0000 0000 0000
000000f0: 0000 0000 0000 0000 0000 0000 0000 0000
0.0 0.0 0.0 0.0 0.0 0.0 0.0 0.0
0.0 0.0 0.0 0.0 0.0 0.0 0.0 0.0
0.0 0.0 0.0 0.0 0.0 0.0 0.0 0.0
0.0 0.0 0.0 0.0 0.0 0.0 0.0 0.0
0.0 0.0 0.0 0.0 0.0 0.0 0.0 0.0
0.0 0.0 0.0 0.0 0.0 0.0 0.0 0.0
0.0 0.0 0.0 0.0 0.0 0.0 0.0 0.0
0.0 0.0 0.0 0.0 0.0 0.0 0.0 0.0

weight f4 [64]
00000000: 0000 803f 0000 803f 0000 803f 0000 803f
00000010: 0000 803f 0000 803f 0000 803f 0000 803f
00000020: 0000 803f 0000 803f 0000 803f 0000 803f
00000030: 0000 803f 0000 803f 0000 803f 0000 803f
00000040: 0000 803f 0000 803f 0000 803f 0000 803f
00000050: 0000 803f 0000 803f 0000 803f 0000 803f
00000060: 0000 803f 0000 803f 0000 803f 0000 803f
00000070: 0000 803f 0000 803f 0000 803f 0000 803f
00000080: 0000 803f 0000 803f 0000 803f 0000 803f
00000090: 0000 803f 0000 803f 0000 803f 0000 803f
000000a0: 0000 803f 0000 803f 0000 803f 0000 803f
000000b0: 0000 803f 0000 803f 0000 803f 0000 803f
000000c0: 0000 803f 0000 803f 0000 803f 0000 803f
000000d0: 0000 803f 0000 803f 0000 803f 0000 803f
000000e0: 0000 803f 0000 803f 0000 803f 0000 803f
000000f0: 0000 803f 0000 803f 0000 803f 0000 803f
1.0 1.0 1.0 1.0 1.0 1.0 1.0 1.0
1.0 1.0 1.0 1.0 1.0 1.0 1.0 1.0
1.0 1.0 1.0 1.0 1.0 1.0 1.0 1.0
1.0 1.0 1.0 1.0 1.0 1.0 1.0 1.0
1.0 1.0 1.0 1.0 1.0 1.0 1.0 1.0
1.0 1.0 1.0 1.0 1.0 1.0 1.0 1.0
1.0 1.0 1.0 1.0 1.0 1.0 1.0 1.0
1.0 1.0 1.0 1.0 1.0 1.0 1.0 1.0

bias f4 [64]
00000000: 0000 0000 0000 0000 0000 0000 0000 0000
00000010: 0000 0000 0000 0000 0000 0000 0000 0000
00000020: 0000 0000 0000 0000 0000 0000 0000 0000
00000030: 0000 0000 0000 0000 0000 0000 0000 0000
00000040: 0000 0000 0000 0000 0000 0000 0000 0000
00000050: 0000 0000 0000 0000 0000 0000 0000 0000
00000060: 0000 0000 0000 0000 0000 0000 0000 0000
00000070: 0000 0000 0000 0000 0000 0000 0000 0000
00000080: 0000 0000 0000 0000 0000 0000 0000 0000
00000090: 0000 0000 0000 0000 0000 0000 0000 0000
000000a0: 0000 0000 0000 0000 0000 0000 0000 0000
000000b0: 0000 0000 0000 0000 0000 0000 0000 0000
000000c0: 0000 0000 0000 0000 0000 0000 0000 0000
000000d0: 0000 0000 0000 0000 0000 0000 0000 0000
000000e0: 0000 0000 0000 0000 0000 0000 0000 0000
000000f0: 0000 0000 0000 0000 0000 0000 0000 0000
0.0 0.0 0.0 0.0 0.0 0.0 0.0 0.0
0.0 0.0 0.0 0.0 0.0 0.0 0.0 0.0
0.0 0.0 0.0 0.0 0.0 0.0 0.0 0.0
0.0 0.0 0.0 0.0 0.0 0.0 0.0 0.0
0.0 0.0 0.0 0.0 0.0 0.0 0.0 0.0
0.0 0.0 0.0 0.0 0.0 0.0 0.0 0.0
0.0 0.0 0.0 0.0 0.0 0.0 0.0 0.0
0.0 0.0 0.0 0.0 0.0 0.0 0.0 0.0
